model.ckpt (torch, 618624 bytes, 4 tensors)

layers.0.weight f4 [50, 3072]
00000000: 23af 523d 40f0 403d e542 023d 5ac1 ab3b
00000010: 9708 04bc 94eb 803b 6b53 ee3b 1fad c23b
00000020: 56cc 933c 5941 6a3a ffb2 d83b 5bdd 2dbb
00000030: 3317 5abc 99f5 773b 77ad 243c 6466 c63c
00000040: 0675 9d3c bacf d63c 62cc 913c 28f9 d7ba
00000050: 5833 a1bc e879 2ebc b2be d33a 5660 ffbb
00000060: 91bb 84bc 1041 10bd ad5c a7bc d298 383c
00000070: b2f6 823c c2c8 3d3c d59c 763d a048 cb3d
00000080: e907 483b 262b 19b9 6e5a 69bb 2f8b 80bc
00000090: d9ba f9bc 2655 c9bc 8ccb bfbc 7178 cbbc
000000a0: eb15 24bc 48a5 8d39 27cb bc3b 31d9 bbbb
000000b0: 3815 dabc ede0 c9bb 5c88 173c dce1 83bb
000000c0: fd03 c3bc 781f 86bb 284a 84ba 3852 8abc
000000d0: 827f b5bc b418 a5bc a638 a5bb be88 8fbb
000000e0: fda5 b03b a728 dfbc 2804 0abd 367d a837
000000f0: 8880 5dbb 0215 c2bc 887c b83c a512 753d
00000100: bcf7 133c 9610 bcbc d7f9 a5bc c2c6 f1bc
00000110: 0ed6 08bd b61e 99bc 7406 abbc 7a48 dabc
00000120: fd60 9cbc 247e 10bc 2062 eeba ed35 adba
00000130: 8229 5cbc f9af 90bb fc98 d9bb f044 0d3a
00000140: 9b6a 87bb 8439 bb3b 5bed 8bbb 867c a9bc
00000150: 35f0 7dbc 8675 61bc 88fd 5ebb 5a59 8cbb
00000160: d2df 163c aef1 35bc afe5 acbc 558b 01bb
00000170: 5f63 9fbc 2940 1dbd fd4e b13b 5d93 483d
00000180: f055 b63b 33e5 8ebc 8bd2 febc 38d2 23bd
00000190: 06c6 09bd 2d2b d5bc 9f65 08bd f8e2 11bd
000001a0: 85c9 16bd bb7e 33bd e0a7 e9bc a097 b5bc
000001b0: 36bf 76bc 2f11 70bc 701f 01bd 9898 06bc
000001c0: c12a 6fbc 1e45 c3bc b751 e8bc 9cf9 bfbc
000001d0: f426 8ebc c26f 52bc 0779 13bb 9246 843b
000001e0: 8eed 9bba e56d 28bd 089d 53bd 9296 14bd
000001f0: 8dc4 36bd f7ce febc d9b7 91bb 36cf b33c
00000200: 643f 95bb 064f cfbc 4e5a a8bc 85a3 e7bc
00000210: 11ea 12bd 340e d8bc 15ec 1ebd 66c1 3ebd
00000220: 7c1a 9fbd 8139 afbd 6fa4 84bd 9b38 11bd
00000230: e03f 31bd 7bba 28bd dfdf d1bc 6f51 26bc
00000240: 6e22 95bc 5332 59bc 1602 cdbc 18c1 bdbc
00000250: fad2 61bc 82f8 9ebc 0663 cb3a f42f 27ba
00000260: 0a76 ebbb 484f 3ebd 7ca5 37bd 2e68 b3bc
00000270: fb87 e6bc cfed 9fbc 8939 b3bc 2e0c b93b
00000280: a265 1ebb af2c fabb 970a a8bb 9423 c039
00000290: 13cd a3bc 3933 9dbb 3677 50bc 01bb 29bc
000002a0: a961 4dbd 8f17 87bd 720b 76bd ed8d 21bc
000002b0: 04a6 e5bc 57ea c5bc 1207 34bd e0d8 5fbd
000002c0: d309 a5bc 7393 933b cb84 37bc 2b9f 8bbc
000002d0: 2994 4dbc b7f5 ddbc 0726 16bb 961b c3bb
000002e0: 3613 96bc dc68 98bc dee8 81bc 9325 09bb
000002f0: 02ee 9b3c dba9 4bbc de88 b5bc 1472 45bb
00000300: 6806 b9bc 3c00 6a3b 94b2 103c 93a0 853c
00000310: e4df 8f3b 9b3c 913c a517 973c 2189 bebc
00000320: 8710 7ebd 0c41 4ebd 1a4c 48bd da69 22bd
00000330: 7cbf 11bd ed0c e33b 211f 64bc 773c cfbc
00000340: 4f27 953b 812a e63b bd3b 2ebb ff6b 8a3b
00000350: 1981 1c3c c2c0 14bc 70fb 3cbc d006 993b
00000360: f174 61bc 7739 a5bc 2399 e9bc 7de6 90bc
00000370: ab1e c33b 3621 e5bb ae06 293c 17cc 443b
00000380: 6420 93bc 3f0d 58bb 5e91 97bb 610b ce3b
00000390: c640 7a3c 97c7 673c 7e92 793c d83a 1fbd
000003a0: 9a29 4abd 5802 eabc d43a 77bd ea4a 8cbd
000003b0: 4bdb 6bbd 628f 78bc 527a 363b dedb 683b
000003c0: b67d ff3b 97de fabb e1f1 6fbc 7e64 503b
000003d0: 4661 a23c ff00 0f3c 501e 3dbb 7ce7 053c
000003e0: 458a 453c caeb 07bc 8053 d9bc fb3f 88bc
000003f0: 0685 1cba 7bbe 11bc 2358 553c 6c67 2f3c
0.051436555 0.04710412 0.031802077 0.005241555 -0.008058689 0.003934333 0.007273128 0.005941048
0.01804177 0.0008936129 0.006613135 -0.0026529643 -0.013311195 0.0037835597 0.010051123 0.024218746
0.01922084 0.026222099 0.017797653 -0.0016477453 -0.019677803 -0.010649182 0.0016154854 -0.0077934666
-0.01620272 -0.0352183 -0.020429933 0.011266904 0.015986774 0.011583509 0.06020816 0.099259615
0.0030522293 -0.00014607291 -0.0035606879 -0.015691368 -0.030484604 -0.024576735 -0.023412488 -0.024837704
-0.010014991 0.0002701676 0.0057615223 -0.0057326783 -0.026621446 -0.0061608464 0.009248819 -0.0040247273
-0.023805613 -0.004093107 -0.0010092901 -0.016884908 -0.022155527 -0.02015338 -0.0050421534 -0.0043803146
0.005390881 -0.027241064 -0.03369537 2.0085467e-05 -0.0033798534 -0.023691658 0.022520319 0.059832234
0.009031232 -0.022957128 -0.020260734 -0.02951372 -0.033407263 -0.018691402 -0.0208771 -0.026645888
-0.019089216 -0.008819137 -0.0018187203 -0.0013214924 -0.013437631 -0.004415509 -0.0066405516 0.00053889956
-0.0041325814 0.0057136435 -0.0042702383 -0.02068926 -0.015499164 -0.01376093 -0.0034025628 -0.0042831125
0.009208636 -0.011104984 -0.021105615 -0.0019766886 -0.019456564 -0.038391266 0.0054110275 0.04896866
0.0055644438 -0.017443275 -0.031106254 -0.039995402 -0.033636115 -0.026021564 -0.03330004 -0.035616845
-0.036813278 -0.04382203 -0.028522432 -0.022167027 -0.015060237 -0.014652534 -0.03152412 -0.008215092
-0.014597596 -0.023836669 -0.028359277 -0.023434453 -0.017352559 -0.012844028 -0.0022502558 0.004036733
-0.0011896358 -0.04112043 -0.05166343 -0.036276408 -0.04462104 -0.031104548 -0.004446965 0.021949392
-0.004554676 -0.025306236 -0.020550873 -0.028276214 -0.035867754 -0.02637396 -0.038799364 -0.046571158
-0.07768723 -0.0855589 -0.06476676 -0.035454374 -0.043273807 -0.041193467 -0.025619445 -0.010151251
-0.018204894 -0.013256627 -0.025025409 -0.023163363 -0.013783211 -0.019405607 0.0015517182 -0.000637769
-0.007185702 -0.046462327 -0.044835553 -0.021900263 -0.028141012 -0.019522576 -0.02187802 0.005647204
-0.0024169465 -0.007634721 -0.0051282155 0.00036647602 -0.019995248 -0.004797366 -0.012723735 -0.010359527
-0.050141964 -0.0659629 -0.06006951 -0.009860498 -0.028033264 -0.024159594 -0.043952055 -0.054650187
-0.020146286 0.0045036613 -0.011201094 -0.01704367 -0.012547531 -0.027094705 -0.002291085 -0.0059542162
-0.018319707 -0.018604688 -0.01585811 -0.0020926937 0.01903439 -0.012430633 -0.02215999 -0.003012781
-0.022586063 0.0035705706 0.008831639 0.01631192 0.0043907035 0.017729094 0.018443892 -0.023258748
-0.06202748 -0.050355002 -0.0489007 -0.03965173 -0.035583004 0.006929031 -0.013923437 -0.025297387
0.004551805 0.00702411 -0.00265859 0.0042243 0.009552264 -0.00907916 -0.011534557 0.0046700016
-0.013760791 -0.020169003 -0.028515404 -0.01768803 0.0059545836 -0.0069924844 0.010316534 0.0030028874
-0.017959781 -0.003296688 -0.0046254834 0.0062879776 0.015274232 0.014146707 0.01523268 -0.038874477
-0.04935608 -0.02856557 -0.060358837 -0.06850226 -0.05758218 -0.015170904 0.0027843905 0.0035531442
0.0077969683 -0.0076559293 -0.014645071 0.003179818 0.019821774 0.008728265 -0.002885718 0.008172866
0.012056892 -0.008295963 -0.026529074 -0.01663207 -0.000597075 -0.008895512 0.013021502 0.01070581

layers.0.bias f4 [50]
00000000: 7e84 003e 6c84 e83e e788 e3be 61ef 8e3d
00000010: a100 dabd 87ab 6f3e 9168 39bd 41f0 85bd
00000020: f727 01bf 3880 ff3d 77a0 4dbd 2449 923b
00000030: 7f5e 6f3e 2662 103e 432b a9be b8a0 a0be
00000040: 6a93 f0be adba 00be e2e4 f43d 3d06 d1be
00000050: 2773 b23e 2b75 373e 37c7 663e 41e9 a63e
00000060: 0d2b 66be 04dd 61be bc8b 58be 35d5 493e
00000070: af9c ddbd 82f4 c0be 1e51 2fbc 3a9e 033e
00000080: 524c 6bbe 678e 843d bc42 8bbe 7244 cfbe
00000090: ab4e 66be c0cf 08be fc0d 0cbe f200 10be
000000a0: 8cba 923e 68d7 1abe 0280 3e3e 956e d73e
000000b0: f777 c73d 2ea1 aabe d169 a1bc a5a5 1e3d
000000c0: 0ae4 6bbe f5b7 843e
0.12550542 0.4541353 -0.44440386 0.06979252 -0.10644651 0.23405276 -0.045265738 -0.065399654
-0.50451607 0.12475628 -0.05020186 0.0044642854 0.23375891 0.1409994 -0.3304082 -0.3137262
-0.46987468 -0.12571211 0.119577184 -0.40825072 0.3485348 0.1791579 0.22536932 0.32599834
-0.2247736 -0.22056967 -0.21147054 0.19710238 -0.10820901 -0.37686545 -0.010700492 0.12853327
-0.22978333 0.064724736 -0.27199352 -0.40481907 -0.22490947 -0.133605 -0.1367721 -0.1406286
0.2865795 -0.15121233 0.18603519 0.42076555 0.09739678 -0.33326095 -0.019703778 0.03873219
-0.23036209 0.25921598

layers.3.weight f4 [10, 50]
00000000: fe53 1d3d b0ac 25ba d4be e6bd 9271 f43d
00000010: 44fa a0bd b8f3 193d 1ad9 8b3d 791a 0d3e
00000020: dbac 1dbe 6c89 0c3e 4ee2 05bc 8c4d 33be
00000030: fa2f 10be 8b53 383e 8058 d0bd 6ca0 dc3d
00000040: b363 9bbd 2291 d33d 302f d33d f134 663d
00000050: 726f 9abd 8a8d f03d 01f0 f33d 3ce5 a23d
00000060: 1821 04be 3b8f d53c 2028 b1bd f3dd 02be
00000070: d7ad 6d3c 294b c1bd 5cfb 403d afb6 463d
00000080: a491 f9bd 4b8e 17be 1442 863c e2d0 49be
00000090: 109b aa3d 6261 0fbe b372 053e 9adc 31be
000000a0: 4fa5 9c3d 3d3e a13d 4e43 5bbe c22d 743d
000000b0: e4ed 6c3b c1a2 50be 2133 79bd e304 25be
000000c0: c823 b13c 0740 26be c709 08be a163 33be
000000d0: 3dfd 813d d6d1 283e 1b05 4f3e 30e3 733b
000000e0: f348 51be 1db3 323e 5956 443e 0f35 1fbc
000000f0: 57f0 34bd 8846 a53d f55f e2bd 51db 3bbd
00000100: 83c4 3cbe 1fc4 183e fbd4 6dbe 2eed c7bd
00000110: 5a09 833e ebd1 1d3e 5e56 45be 81ee 09be
00000120: f6c0 623c 2a2f e7bd 15d0 203e d0ca 273d
00000130: f8be ce3d cb52 c7bd 307a e2bd 98b5 9d3d
00000140: 9775 293e 55aa b9bd 66cd 013e 7b86 8dbe
00000150: a109 37bc da74 053d fe4c 263e 949a 1c3d
00000160: 5044 393e 72d9 3abe b2bb 6cbe 6518 823d
00000170: 9001 a5bd 48fe 0fbd 51c3 c83d 0181 0f3d
00000180: 167a 80be 3e50 33be 540f 0a3e 7200 7fbd
00000190: 47cf da3d f3fa a13d bc18 74be 50e8 16bd
000001a0: d477 67be 2133 9d3d cf84 01be 504f 9abd
000001b0: c650 3abe b72a d2bc 8539 333c 88d3 5b3d
000001c0: ab77 e03c 6a75 f0ba 2e5e ee3d fabf 49be
000001d0: 7ce5 9ebb af91 023d c918 6ebd 9bde 50be
000001e0: 4e23 f53d b1ed 193d bf72 883d cb72 9fbb
000001f0: ce31 20be 9082 44bd 0213 04be 7ec1 cebd
00000200: 8122 c5bd 05c7 66be a373 5bbc 5539 9b3d
00000210: b306 a8bd 753b 8f3c 96d7 2abe c9d1 9f3c
00000220: 79d8 f9bc aa6e 04be e25d 67bd 67d5 5a3d
00000230: 7a58 033e d627 02bd 7b63 723c 9af5 d13d
00000240: 0dd6 d33c f138 70bd 1e72 003e 1d0c fd39
00000250: 6668 18be eae8 833d 8df0 fcbd 4a9e b53c
00000260: e849 55bd 30ba e8bd a0ec 593d ff8f 28bd
00000270: 7ef4 813c a844 62be d85d 33bd 3330 ae3c
00000280: f9a9 d93d 8180 e03d 8aed 123e e485 013d
00000290: e669 c43d c48e 25be 0748 5b3c 1d64 47bd
000002a0: 278c 22be 2369 eebd 1dd3 8d3d 3b7d f73b
000002b0: 4585 813d 47bd 0c3c 65df a1bc f397 b8bd
000002c0: 377b de3c 4b29 173d 125a c43d 6969 0c3d
000002d0: 0cd3 66be 3318 79bb 58bc acbb 1d75 923d
000002e0: d38b e8bc f394 453d 15bc 46be 170a 893d
000002f0: 8d21 4abe 8971 c23d 3faf 2f3c 88d5 26be
00000300: dc58 7f3d 2b9b b9bd cbbb c33d 2551 8d3d
00000310: 7f9b 673d 3bab 96bd ca14 0abe 8b6b 45bd
00000320: 4359 aa3c 13f2 873d 3aaa f8bd d8fc 8a3d
00000330: 1140 80be b744 883d 8419 ffbd 0dc1 9dbd
00000340: abd5 3abe 58c7 0bbe 0202 49be 8836 b2bd
00000350: 7a28 0c3d bace 2f3d 0706 d8bd 5bfa 19bd
00000360: 863e 83bd 01f7 1b3d c82e e9be 4381 29ba
00000370: d06d 113d ac63 703d dbfd 87bd db93 083d
00000380: 1b8f 973d a36c 16be 317f 10be bb37 9f3d
00000390: 8676 dbbd 2fd5 64be dc98 1cbe 3f90 c63c
000003a0: 87aa 00bd 36b0 52bd e93a 63bc ffc3 99be
000003b0: 9889 753d 4840 b43d a52c d1bb c526 3abd
000003c0: 0b30 823a 879c aebc f281 403d 0ce6 d23d
000003d0: 5675 1bbe 7c79 03be 8964 e53c 31ad 6d3d
000003e0: 223b be3c 3973 a93d 20fc 3fbe abb4 2b3c
000003f0: 5273 87bd 5e16 3fbe cb4a c63c 538e 963c
0.03841018 -0.0006319983 -0.11266866 0.11935724 -0.078602344 0.037585944 0.06828518 0.1377963
-0.1539797 0.13724297 -0.008171631 -0.1751005 -0.14080802 0.18000619 -0.1017313 0.107727855
-0.075873755 0.10330416 0.10311735 0.056202833 -0.07540788 0.117457464 0.119110115 0.07953879
-0.1290325 0.026069274 -0.08650231 -0.1277998 0.014506779 -0.09438164 0.047114715 0.048514064
-0.12185982 -0.14800374 0.01638893 -0.19708589 0.08330357 -0.14001992 0.13032036 -0.17369309
0.076487176 0.07873199 -0.21412393 0.05961395 0.0036152536 -0.20374586 -0.060839776 -0.16115145
0.021623507 -0.16235362 -0.1328498 -0.17518474 0.063471295 0.16486296 0.20216791 0.0037214272
-0.20437984 0.17451139 0.19173564 -0.00971724 -0.04417452 0.080700934 -0.110534586 -0.045863453
-0.18434338 0.14918564 -0.23225777 -0.09762035 0.25593072 0.15412109 -0.19271228 -0.13469888
0.013839951 -0.11288293 0.15704377 0.0409649 0.10095018 -0.097325884 -0.11058462 0.07700652
0.16548763 -0.090656914 0.1267601 -0.27641663 -0.011171729 0.03258214 0.16240308 0.038233355
0.18092465 -0.18247011 -0.23118475 0.06352309 -0.08056939 -0.03515461 0.09802879 0.035035137
-0.25093144 -0.17511079 0.1348241 -0.062256284 0.10684066 0.07909193 -0.2383756 -0.036842644
-0.22604305 0.07675768 -0.12648319 -0.07534659 -0.18194875 -0.025655134 0.010939007 0.05366853
0.027400812 -0.0018345539 0.11639057 -0.1970214 -0.004849134 0.031877216 -0.058129106 -0.20397417
0.119696245 0.037580196 0.06662511 -0.0048659793 -0.15643999 -0.047976077 -0.12897876 -0.100954995
-0.09625722 -0.22536857 -0.013394269 0.075792946 -0.08204403 0.017484406 -0.16683802 0.019509213
-0.03049873 -0.1293284 -0.056486018 0.053426173 0.1282672 -0.03177627 0.014794226 0.10251923
0.025858903 -0.058648054 0.12543532 0.00048264946 -0.14883575 0.06440909 -0.12350569 0.022170205
-0.052072436 -0.113636374 0.05320418 -0.04115295 0.015863653 -0.22096503 -0.04379067 0.021263218
0.10628123 0.1096201 0.14348426 0.03162183 0.09590511 -0.16167742 0.013383872 -0.04867946
-0.15873776 -0.11641147 0.06925032 0.0075527704 0.06324247 0.008590049 -0.019759843 -0.09013357
0.027158363 0.036904614 0.09587492 0.034280214 -0.22541445 -0.0038008809 -0.0052714758 0.07151244
-0.028386986 0.048237752 -0.19407685 0.066913776 -0.19739361 0.09494311 0.010722934 -0.16292393
0.062340602 -0.09062799 0.09557303 0.06900243 0.056544777 -0.07356878 -0.13484493 -0.048198264
0.020794516 0.06637969 -0.12141843 0.06786507 -0.2504888 0.06653731 -0.124560386 -0.07702837
-0.1824557 -0.13650262 -0.19629672 -0.08701807 0.03421829 0.04292176 -0.105480246 -0.037592273
-0.0640841 0.03807736 -0.45543504 -0.00064661 0.035505116 0.058688805 -0.06640216 0.03334413
0.07400342 -0.14689879 -0.1411102 0.077743016 -0.10715966 -0.22346948 -0.15292686 0.024238704
-0.031412628 -0.05143758 -0.013869026 -0.30032346 0.059945673 0.08801323 -0.006383496 -0.04544713
0.0009932531 -0.021314872 0.046998926 0.10297784 -0.15181479 -0.12839311 0.02800204 0.058026496
0.023221556 0.0827393 -0.18748522 0.010480086 -0.066137925 -0.18660876 0.024205586 0.018378412

layers.3.bias f4 [10]
00000000: 14b4 81bc 3dc5 0fbf 48ec 8c3e 205f a1bd
00000010: 5215 fc3e e8ac 30be 104a b83e c939 81be
00000020: 8037 8c3e 026d bdbe
-0.015832938 -0.56160337 0.27524018 -0.07879472 0.49235016 -0.17253458 0.35994005 -0.252394
0.27386093 -0.3699723
